predictionModel/models/flood_landslide_model.pth (torch, 209148 bytes, 10 tensors)

lstm.weight_ih_l0 f4 [256, 4]
000000 30 03 42 bd ae 1d ac 3c 20 9e ec bc 53 db 10 3c
       -0.04736632 0.021010246 -0.028883994 0.0088413535
000010 15 7e 6f bd b1 0d 3e bc f2 1f 93 3c 5d 44 93 3d
       -0.05846985 -0.011599944 0.017959569 0.07190774
000020 11 cf cc 3c 29 ba 80 3c 4c b2 33 3c 0c aa c9 3b
       0.02500108 0.015713768 0.010967802 0.0061543044
000030 46 2e 8b 3d 77 30 a2 bd 45 af 86 3d 8c 3e 14 bc
       0.06795935 -0.079194 0.06576399 -0.009048115
000040 61 01 fa bd ad d1 50 3d ab bf eb bd 96 54 2c 3c
       -0.12207294 0.050981212 -0.11511167 0.010518214
000050 45 6f e0 3c 95 1e e8 bc 0c f7 82 3d f8 e4 8b 3c
       0.027396807 -0.028334895 0.06394777 0.017076954
000060 af ca 3a 3c 15 4c b0 bd f5 f1 86 3d a5 2a f4 3d
       0.011400863 -0.086082615 0.065891184 0.11922196
000070 de 9a 3e bb 8b 58 72 bd 3a c0 0b 3e 25 bb c2 ba
       -0.0029084007 -0.059166472 0.13647547 -0.0014856799
000080 52 e4 c5 3d 1e 71 ce bb a7 91 c3 bc e5 17 91 bd
       0.09662689 -0.0063001057 -0.023873163 -0.07084636
000090 bb 1c 0d 3d fa f2 e2 3d 9c 69 9d bd 78 17 d7 bc
       0.034451228 0.110815 -0.07686159 -0.026256308
0000a0 fe 22 96 3d 45 da 38 3c e3 8f e5 3d 82 1c 79 3d
       0.07330893 0.011282508 0.11209085 0.060818203
0000b0 0b ca 9f 3d 11 e7 a6 bc af 72 05 3d 77 7c e7 bd
       0.078022085 -0.020373853 0.032580074 -0.11303037
0000c0 c2 18 a9 3d 41 1a ae 3d 6d f2 7e bd 79 89 e4 3d
       0.08256675 0.08501101 -0.062242914 0.11159033
0000d0 64 5a fc bd 3b 3d 6e 3d 4c 8e 2c 3c f8 91 de bd
       -0.12321928 0.058163863 0.010531973 -0.10867685
0000e0 d8 46 25 bd 99 26 ab 3d 0c fc be 3d 09 50 66 3d
       -0.040350765 0.08356971 0.09325418 0.05622867
0000f0 86 33 82 3c aa bd e0 3d 52 9d fd 3c 0b 52 41 bd
       0.015893709 0.109736755 0.030958805 -0.047197383
000100 3c 9c 18 3d 53 27 4b bd 4d 06 bb bd c0 8c c1 bc
       0.03725837 -0.04959805 -0.09132061 -0.023626685
000110 74 27 a1 bd 34 a3 d6 3d c2 8a a6 bd 80 04 d6 bd
       -0.07868853 0.10480347 -0.08131935 -0.10450077
000120 29 cb 9e bc 43 8a 93 bd 1e 22 67 3c 5b 48 16 3e
       -0.019383984 -0.07204106 0.014107255 0.14676039
000130 16 3f 97 3b 89 18 8a bb f5 75 e7 bd a3 84 f1 3c
       0.0046156747 -0.0042143506 -0.113017954 0.029482191
000140 2b 24 9b 3d 75 85 b0 bd 66 49 7d bd 42 77 1b bd
       0.07575258 -0.08619205 -0.061837576 -0.03795553
000150 f2 ca cb 3c 39 73 fd bd 0f fb 74 3c bc e3 82 3d
       0.024877045 -0.123754926 0.014952435 0.06391093
000160 bc 49 e6 bd 4c 30 14 3e 3d f4 ea bc 30 f2 84 3d
       -0.112445325 0.14471549 -0.028680915 0.06491506
000170 ce 62 1b 3e 94 5c 03 3e c9 28 be 3d 90 e6 3e bc
       0.1517441 0.12828285 0.09285123 -0.01165165
000180 6a 77 0b bd 95 d8 d4 bd 21 83 16 3e ad 72 e5 3d
       -0.03404943 -0.10392872 0.14698459 0.11203513
000190 99 2b 8b bc c6 99 34 3d 54 9f 82 bd cc 92 ef bd
       -0.016988562 0.044091962 -0.06378046 -0.11697921
0001a0 3c ea b7 b9 df a6 55 3d dc 12 aa bc 2d d5 b6 bd
       -0.00035078998 0.052161094 -0.020760946 -0.08927379
0001b0 e5 65 16 3e 08 f5 e3 3d bf 05 c4 3d 47 a5 0d bd
       0.14687307 0.111307204 0.095714085 -0.03458145
0001c0 3a ed c5 3b aa 2c 13 be 10 d6 e6 3d f0 f1 31 3c
       0.0060402425 -0.14372507 0.11271298 0.010860905
0001d0 35 f6 79 3d b9 f2 68 bc d8 5b 83 bb cc 74 aa 3d
       0.061025817 -0.014218026 -0.0040087514 0.083230585
0001e0 eb 6f 97 3c cc 33 97 bd 3a e3 a1 3b 65 ed 10 bd
       0.018485984 -0.07382926 0.0049404176 -0.035382647
0001f0 64 3f ea 3d 1a d7 f9 3d 51 1d bf bd 6e 5f 84 bd
       0.11437872 0.121992305 -0.093317635 -0.06463514
000200 61 a8 b4 bd 4e de ad bd 41 67 05 3e d3 6d 9f bd
       -0.08821178 -0.08489667 0.1302767 -0.07784619
000210 f9 56 b0 bd 52 ef a1 3d 4b a7 b3 bd e7 01 b9 3d
       -0.08610339 0.07906975 -0.08772143 0.09033566
000220 50 2e 0b 3d fe 87 69 3d d7 c4 74 bd c9 a6 ca bd
       0.033979714 0.057014458 -0.059758034 -0.09895093
000230 0b 1d 38 bd ea c8 e5 bc b1 96 c7 3c 7b 06 d2 3b
       -0.044949573 -0.028049905 0.024363847 0.006409464
000240 b7 7d a4 3d ff 9e b0 3d 1d 5c 82 3d cb 03 bb 3d
       0.08031791 0.08624076 0.063652255 0.09131583
000250 45 d3 a3 bd 3e cb ea bc 2a 76 cd bb 67 b7 bc 3d
       -0.07999281 -0.028661367 -0.00627019 0.09214669
000260 79 46 8f 3d 41 94 16 be 96 6f 63 bc 4f 94 81 bd
       0.069958635 -0.14704992 -0.013881585 -0.06327116
000270 f4 3c 5f 3c 5a 27 9a 3c 33 4f 0c 3d 41 81 90 bd
       0.013625372 0.018817592 0.034255218 -0.07055903
000280 8c 5b ea bd ff ff 14 3e 21 b9 03 3d f4 8d ac bd
       -0.114432424 0.1455078 0.032158975 -0.08425513
000290 b6 16 e0 bb f1 c8 ed bd 20 0d c8 3b cd b8 dd 3d
       -0.006838645 -0.11610592 0.0061050802 0.108262636
0002a0 3c 14 39 bd 46 5f da 3d 40 95 92 3d a4 b3 c3 3c
       -0.045185313 0.10662703 0.071573734 0.02388937
0002b0 95 7b c0 3d d7 16 9b 3d 27 a8 06 3e 69 d2 10 3d
       0.093985714 0.07572716 0.13150083 0.035356913
0002c0 a9 51 cd 3c 65 d9 83 bd 3f c8 b9 bc dc bf cf 3d
       0.025063353 -0.06437949 -0.022678493 0.10144016
0002d0 22 07 ab bd 75 3d a2 3d 7e e4 08 bc 80 70 58 bc
       -0.0835097 0.07921878 -0.008355258 -0.013210416
0002e0 65 09 82 bd 85 ed 30 bd df 8b d6 3d 81 7f 9b 3d
       -0.06349448 -0.043195266 0.10475897 0.07592679
0002f0 90 ad 6f bd 8f a9 e8 bd f4 47 4f 3d d6 b4 22 bc
       -0.05851513 -0.11360466 0.05060573 -0.00993081
000300 d2 bf ad 3c 06 cd 0d be 8b 85 10 3e 56 cc c2 bb
       0.021209631 -0.13847741 0.14113443 -0.005944769
000310 82 78 c6 bd f8 e0 56 3d 83 57 96 bd 0b 87 7d 3d
       -0.09690954 0.05246064 -0.0734091 0.061896365
000320 75 be 0f 3d 75 28 9d 3d b8 7f e9 3d fa 33 7a bd
       0.035093743 0.07673732 0.114013135 -0.061084725
000330 0b 13 d0 bd 6a f0 d9 3d 9c ca 11 be ba d6 c6 3d
       -0.10159882 0.106415585 -0.14237446 0.097089246
000340 a3 33 b9 3d 6a 11 db bd 00 df a9 3d 26 2a 72 3d
       0.09043052 -0.10696681 0.08294487 0.059122227
000350 10 73 1b bc bb 34 0b bd ea d0 89 bd 49 56 a1 bd
       -0.009487882 -0.033985835 -0.067293 -0.07877786
000360 36 fa d7 3d c2 f8 b9 3d 8a 33 6d bd d5 c5 2c bb
       0.10545771 0.0908065 -0.05791048 -0.0026363034
000370 2a dd 83 bd 6c 2c 25 bd 99 79 10 3e aa 56 26 bd
       -0.06438668 -0.040325567 0.14108886 -0.040609993
000380 c3 50 d4 bd 78 9f a3 bb f6 d8 db bb 78 81 9f 3d
       -0.103669666 -0.0049933754 -0.0067092134 0.07788366
000390 c0 c1 e0 3d 0a 92 bd bd 2c 3e cb bd a5 40 ba 3d
       0.10974455 -0.0925637 -0.09923968 0.09094361
0003a0 f0 cc ae 3c 9e 59 0f bd 9b 14 90 3d e5 86 d6 bd
       0.021337956 -0.034997575 0.0703518 -0.10474948
0003b0 ad a6 8c bd cd 47 7c 3d ad 26 12 bd 23 88 93 39
       -0.068677284 0.061591912 -0.035681415 0.00028139455
0003c0 32 7b cd 3d b8 7a 0f be 55 20 98 3c 83 73 b3 3d
       0.10033263 -0.14011657 0.018570105 0.087622665
0003d0 7a cf 9e bd 31 48 b6 3d de 49 2a bc 63 88 ed 3c
       -0.07754417 0.08900488 -0.010393588 0.028995698
0003e0 fc a5 e4 3d ec d9 b9 bc 0b 0e 7f 3c a7 13 8a bd
       0.111644715 -0.022686921 0.015567313 -0.0674203
0003f0 13 36 f6 3c 3e fc 2b 3e e2 cc 2e 3d 05 9b f4 3d
       0.030055081 0.16795442 0.04267586 0.1194363

lstm.weight_hh_l0 f4 [256, 64]
000000 64 05 14 3e b5 38 73 bd 19 a3 8d bc 53 7c 04 be
       0.14455181 -0.059380252 -0.017289685 -0.12938051
000010 5f 9e 4b 3d 1e 01 15 3d 6f ff 81 3d 19 0b 98 3d
       0.04971158 0.03637802 0.06347548 0.07423992
000020 c5 87 93 bd 8d 08 71 bd 9a d3 a6 3d 45 92 d5 3d
       -0.0720363 -0.058846045 0.081458285 0.10428289
000030 68 b8 cf bd 7e 3b 9a 3c 02 c8 50 3d 13 35 a2 3d
       -0.101425946 0.018827196 0.050971992 0.07920279
000040 a0 a1 8f bc 86 2d c4 bd b8 9c 00 3d 51 5a 91 bd
       -0.017533123 -0.095789954 0.03139946 -0.070973046
000050 65 da b1 3d 0b e0 24 bd df fe 76 bd cd 54 98 bd
       0.086842336 -0.040252727 -0.060301658 -0.074380495
000060 97 68 ed 3c 80 15 5d bd 47 d8 8b 3c 75 3c 96 3d
       0.028980536 -0.053975582 0.017070903 0.0733575
000070 53 90 8d bc c4 fd c5 bc 7d cc c7 3d 1a 86 1d 3d
       -0.017280733 -0.024168856 0.097558 0.038457967
000080 f8 90 dd 3c 10 fd cb 3d ca f9 fe 3c 57 76 e5 3d
       0.027046666 0.09960377 0.031124968 0.11204212
000090 a0 ae d5 3d 31 43 93 bd ae 3c ea 3d ee 51 96 b9
       0.10433698 -0.0719055 0.11437355 -0.00028671272
0000a0 70 74 dd 3d 37 bf bd 3d 05 b9 b9 3c 98 ba 44 bc
       0.10813224 0.09264987 0.022671232 -0.012007378
0000b0 2f 84 1c bd f4 88 64 3d 14 b0 22 3d d8 04 be bd
       -0.038211998 0.05579467 0.039718702 -0.092782676
0000c0 39 2c f2 3d 31 20 e0 bd 21 c9 ea bd b4 80 7c bd
       0.11824841 -0.1094364 -0.114641435 -0.06164618
0000d0 0d 86 78 3d 79 30 85 3d 70 be 92 bc 5c 04 e0 bc
       0.060674716 0.06503386 -0.017913073 -0.027345829
0000e0 f6 dc d4 3b bc bc b6 bd e7 e0 c7 3b 34 b0 49 bd
       0.006496067 -0.08922717 0.0060998085 -0.049240306
0000f0 35 28 13 bc 9a 1f a7 bd 96 27 67 3d f5 45 81 bd
       -0.008981754 -0.081603244 0.056434236 -0.06312171
000100 35 0c c1 bd 58 48 6e bb af be 74 bd d2 db fc bc
       -0.094261564 -0.0036359038 -0.059752163 -0.030866537
000110 dc 3d 06 be f1 d8 d7 3c 01 57 83 bd 1d c3 02 be
       -0.13109535 0.026348563 -0.06413079 -0.12769742
000120 58 fc 8a bd 41 1f ca 3b 76 40 05 3d b2 4f bc bd
       -0.06786412 0.0061682765 0.032532178 -0.09194888
000130 fe 79 9c 3c 70 88 4a bd 8a ff 4c 3d 51 70 79 bd
       0.01910114 -0.049446523 0.05004839 -0.06089813
000140 35 32 99 bd 63 04 8b 3d 53 d6 0e 3d 79 10 78 3d
       -0.07480279 0.06787946 0.034872364 0.060562585
000150 6e 80 a9 bd 16 2e c8 3c 5f 99 ee 3d bc 10 f4 bd
       -0.08276449 0.024436038 0.11650347 -0.11917254
000160 30 6c a1 bd 12 b5 35 bd e3 d1 8c 3c de 4b 83 bc
       -0.07881963 -0.044362135 0.017189926 -0.016027387
000170 55 6c 03 bd 43 0a 92 bd ad 43 87 3d 1f e4 2f 3d
       -0.032085735 -0.071308635 0.06604705 0.042942163
000180 8d 0b ed 3d 76 25 84 bd 9f 6f 0a 3d 86 52 8d bd
       0.11574469 -0.064524576 0.033797856 -0.06900506
000190 0f c5 e5 bd 2d 66 c3 bd b9 b5 8a bd 47 7c 38 bc
       -0.112192266 -0.09540973 -0.06772942 -0.011260099
0001a0 1d 9b c0 3c b5 13 af 3c 45 fa 8f bd 40 1b b7 ba
       0.023511464 0.021371702 -0.07030157 -0.0013969913
0001b0 53 9d 9e 3d 75 f1 88 bd c7 40 f5 bd 27 1b a3 3d
       0.07744851 -0.06686679 -0.11975246 0.07964163
0001c0 21 1d d6 3d 54 9e 0e bc 7d 3d c3 bd a8 ed ba bd
       0.10454775 -0.008704741 -0.09533212 -0.091273606
0001d0 79 28 b0 bd 32 17 f7 bd 96 59 e2 bd fa 03 89 bc
       -0.086014695 -0.12064971 -0.110522434 -0.016725529
0001e0 34 72 ed 3d 20 51 0a bb 3b da 95 bc 3d 8b a8 bd
       0.11594048 -0.0021105483 -0.018292537 -0.082296826
0001f0 cf 76 7a 3d 8b 42 36 bc 97 c6 5c 3c 2c 51 89 bd
       0.06114846 -0.0111242635 0.013475082 -0.067049354
000200 28 8d 44 bd 0d cc e5 bd a7 1b d2 3d 8a 44 00 3d
       -0.04798618 -0.1122056 0.102591805 0.031315364
000210 26 ef 5c 3d a9 d4 02 bc e9 3e b0 bd 2c 1c 0a bb
       0.053939007 -0.007985272 -0.08605749 -0.002107392
000220 57 95 12 3d 87 c2 b0 bb d9 13 7d 3d 72 aa 03 3d
       0.035786953 -0.005394283 0.061786506 0.03214497
000230 7a 56 60 bc 65 97 e3 bc 08 38 f3 3d 73 2a 0f 3d
       -0.013692493 -0.027782151 0.118759215 0.034952592
000240 68 65 14 bd 19 78 f1 3c ed 6f 9f 3d 1a 56 7d bc
       -0.03622952 0.029476212 0.0778502 -0.015462423
000250 1a 96 25 bd 78 0b 83 3c 48 91 92 3d 06 1d 20 3a
       -0.04042635 0.01599668 0.071566164 0.00061078405
000260 92 c4 0a bd d0 c4 ba 3d 29 c5 2b bd 00 4c 80 3b
       -0.03387887 0.0911957 -0.041936073 0.00391531
000270 5d 6b 83 bd e2 72 8b 3c fe 91 25 be 18 08 25 bd
       -0.06416962 0.017022554 -0.16168973 -0.040290922
000280 a4 c5 9b bc 98 21 de bc 05 b8 f9 3d 97 dd cb bd
       -0.01901514 -0.027115628 0.12193302 -0.09954374
000290 ab f9 13 3d 66 09 22 3b f3 88 e0 3c 28 ae 77 bd
       0.036126774 0.002472484 0.027409052 -0.060468823
0002a0 6e 84 79 bd 4e 75 09 3d ce 6d 39 3d ac e4 4e 3d
       -0.06091731 0.033559136 0.045270734 0.050511047
0002b0 9d 71 30 bd 65 02 32 bd e9 dd 91 3d dd 1d da 3d
       -0.0430771 -0.043459315 0.07122404 0.10650227
0002c0 ce d8 81 bd 19 be 08 3e 7f 9b e3 3c 1f 83 82 3d
       -0.0634018 0.13353767 0.027784107 0.063726656
0002d0 37 de 18 3d 83 c9 07 bd ce 67 07 bd 74 c2 b1 bd
       0.037321296 -0.03315116 -0.03305798 -0.08679667
0002e0 88 a0 8e 3d b9 64 c6 bd e1 99 ac 3d 29 b7 0b 3d
       0.06964213 -0.0968718 0.084277876 0.034110222
0002f0 f7 0d 83 3c 6d 1c d2 3d 43 aa 53 3c 34 33 83 3d
       0.01599787 0.10259328 0.0129190115 0.064062506
000300 7a 9e cb bd 14 4b 76 bb 46 1d e0 bd b8 15 00 3d
       -0.099423364 -0.003758137 -0.109430835 0.031270713
000310 d4 ac a0 3d 8f 8a 9a 3d 1d 78 f9 3d b8 80 9e bd
       0.07845464 0.07545959 0.12181113 -0.07739395
000320 bc a1 d8 bd f0 37 bf bd 19 6d 2a bd f2 bf df bd
       -0.105777234 -0.09336841 -0.04160795 -0.109252825
000330 78 65 02 3e 1b bf 5c bd 90 37 5a 3d 93 a8 28 bc
       0.1273402 -0.05389319 0.053275645 -0.0102940975
000340 9c 7a 90 3d 60 d1 c0 bd 74 14 26 bc 50 cb 6f 3d
       0.07054636 -0.09414935 -0.010136712 0.058543503
000350 03 e1 15 3d 77 b7 af bc 47 f0 c7 3d 16 5f 3a 3d
       0.03659154 -0.021449788 0.09762626 0.045500837
000360 dc e6 71 3d 83 fe c2 3a af ea 8d 3d fb ad 1a 3d
       0.059058055 0.0014876876 0.06929528 0.037763577
000370 42 05 ff bd 9c 9b fc bc 0f 65 a7 bd be e4 26 3d
       -0.12452175 -0.03083592 -0.08173572 0.04074549
000380 e8 d0 e3 3b e6 2b 2d bd 9e 1a 88 3d 17 ea eb 3d
       0.006952394 -0.042278193 0.06645702 0.115192585
000390 c3 09 2d bd fb f1 05 3c 34 99 ab bd c3 b9 8e bc
       -0.042245638 0.008175368 -0.083788306 -0.017422562
0003a0 22 e0 d7 3d 88 c0 f3 bd db 9f 77 3d 22 2e c7 3d
       0.10540797 -0.11901957 0.060455184 0.09725596
0003b0 85 6f d0 bc 4d d8 d8 3d 73 40 76 3d 24 c4 08 3d
       -0.025443802 0.10588131 0.060120057 0.03339018
0003c0 93 7e a3 3c 67 4b dc 3d cd 44 0f 3d 43 05 22 bd
       0.019957816 0.10756569 0.034977723 -0.0395558
0003d0 cc 1f 77 bd 00 2b 00 bd 48 8c 33 3a d1 29 dc bd
       -0.06033306 -0.031291008 0.00068492116 -0.10750163
0003e0 ec 38 93 3c 1d 6a 83 3d 74 2c 0a 3e d7 de 60 bd
       0.017971478 0.06416724 0.1349352 -0.054900017
0003f0 60 29 50 bd f4 f3 56 bc a9 8b 99 bd 6a 18 cc bd
       -0.05082071 -0.013119686 -0.07497341 -0.09965594

lstm.bias_ih_l0 f4 [256]
000000 a7 77 49 3c cf 84 5b bc 9e 36 4a 3d 90 01 51 bd
       0.012296594 -0.013398363 0.049368493 -0.05102688
000010 b6 96 e4 bb aa 5e 89 3d aa 60 ec 3d bb af 72 3d
       -0.006975974 0.06707509 0.11541875 0.05924962
000020 39 66 8f bd a0 d4 a4 3d 88 ef df 3c 85 fe ad bd
       -0.07001919 0.080483675 0.027335897 -0.084958114
000030 c6 98 f2 3d 03 02 1d bd 1b 78 b3 3d cd 74 67 bd
       0.118455455 -0.038331997 0.08763143 -0.056507874
000040 95 99 13 bd 7c 44 e7 bd 1f a9 df bc 69 37 f1 3c
       -0.03603514 -0.11292359 -0.027302323 0.029445367
000050 19 eb 81 3d 05 04 34 3d 19 dd d9 bd 3b ff 79 bd
       0.063436694 0.043949146 -0.10637874 -0.061034422
000060 77 c1 95 bd fd 85 2a 3c 26 4a f6 3b ec 21 d7 3d
       -0.07312291 0.010407922 0.0075161634 0.10504517
000070 c4 7b af 3d 2e 89 ca bd 1d 75 bb 3d 09 8d e5 3d
       0.08568528 -0.09889446 0.09153197 0.11208541
000080 ed 1e c5 bd 7a 63 1d 3d 61 a0 fa 3d ce 1a f1 3c
       -0.09625039 0.038424946 0.12237621 0.029431727
000090 12 57 b6 bd c5 fe 11 bd a9 2b cb 3b 5f e3 cd bd
       -0.08903326 -0.035643358 0.006200273 -0.10053133
0000a0 a4 7f de 3d 54 b6 bc 3c 59 81 e2 3d 49 b9 25 3e
       0.10864189 0.02303616 0.11059827 0.16183962
0000b0 d6 9f 5f 3d 6c 0e a4 3d f8 bd 53 bd 52 68 87 3d
       0.05459579 0.08010563 -0.05169484 0.066116944
0000c0 f9 d7 c2 bd 18 9f a4 3d df cd 99 3c e5 52 b8 bc
       -0.0951385 0.08038157 0.018774925 -0.022500465
0000d0 97 47 df 3d 80 28 58 bd df bc 01 3e 3e 63 97 bd
       0.109023266 -0.052773 0.12669705 -0.07391976
0000e0 1f e0 9f bd f4 b5 a0 3d 63 ae ac 3c ca 4f f3 bb
       -0.078064196 0.07847205 0.021079248 -0.007425283
0000f0 1f f5 12 be d4 b3 55 3c 56 a4 bb bd 8e af 98 bd
       -0.14351319 0.013043363 -0.09162204 -0.074553594
000100 8a 18 e0 3d 40 90 8a 3c ae 9a 3a 3d 54 83 f1 bd
       0.109421805 0.016914487 0.04555767 -0.11792627
000110 c9 4c df 3d 84 fd 0a 3d d5 4f 21 bd c0 5b bc 3c
       0.109033175 0.033933178 -0.039382774 0.022992969
000120 ac 27 e5 3b 39 03 ed bc d2 07 ee 3d f5 b6 c9 bb
       0.0069932546 -0.0289322 0.11622585 -0.0061558434
000130 7e 4c 7c bc 01 6e 02 3e 7c 45 43 3d e1 bc 06 3e
       -0.0153990965 0.12737276 0.047673687 0.13157989
000140 44 9b 96 3d be 50 c4 bd a2 e9 1c bd 90 03 2a 3d
       0.07353833 -0.09585713 -0.038308747 0.041507304
000150 ac 73 d6 bb 5a 7c 2e bd 7d b8 cb bd 6e 1b da 3d
       -0.006544551 -0.04259906 -0.09947298 0.10649763
000160 bd 9d 03 3e 7d 9d 6d bd 65 7a fd 3c 1b 19 00 3e
       0.12853141 -0.05801152 0.030942151 0.12509577
000170 50 12 66 3d b9 fb c5 bd 10 a2 19 bd 77 88 89 bd
       0.056169808 -0.09667153 -0.03750807 -0.06715482
000180 f6 b2 18 bc e0 07 cc 3d 85 4d 7b bd c6 9b d7 3d
       -0.009320011 0.099624395 -0.061353225 0.10527758
000190 f1 3a 89 3d c0 6b 08 bd 89 b3 2c 3d 72 8d bc 3d
       0.06700695 -0.033305883 0.042163406 0.09206666
0001a0 f4 c0 dd 3b 52 ca 32 3d ac 31 fa bc 31 88 6f 3d
       0.0067673866 0.04364998 -0.030541264 0.05847949
0001b0 33 1e 69 bd 7a 0d 2e 3d ae 9d b8 3b 04 4b 08 3e
       -0.056913566 0.04249332 0.0056340313 0.13309866
0001c0 44 fb b0 bc fd 00 ed 3d b6 97 d6 3c 38 5f de 3c
       -0.021604188 0.11572454 0.026195388 0.027145013
0001d0 6c cd e4 b9 9d b6 ee 3d e6 2b 32 3d e9 e8 05 bd
       -0.000436406 0.116559245 0.043498896 -0.032692824
0001e0 34 f6 91 bd 31 70 a3 3d e8 4e 5e bc c1 29 e5 3d
       -0.07127038 0.07980383 -0.013568617 0.111896046
0001f0 ce 72 39 bd 60 77 f5 3c 6d 13 76 3b 5f b7 99 bd
       -0.045275502 0.029964149 0.00375482 -0.075056784
000200 a4 20 03 bd 29 b1 80 3b 4c 7a 99 3d 07 33 c7 bd
       -0.03201355 0.003927369 0.074940294 -0.097265296
000210 69 73 b4 bc ca 06 4a 3c b2 11 e7 3d e7 17 b8 3d
       -0.022027688 0.01233072 0.11282672 0.08988934
000220 95 e5 ab bd 6a be c2 3d 3f 81 c2 3c b4 82 58 3d
       -0.08393399 0.09508975 0.02374327 0.052859023
000230 99 f3 9a 3d 03 80 2c 3e c5 06 7f 3d 41 c5 3a 3d
       0.07565994 0.16845708 0.062262315 0.045598272
000240 cd 8b d7 3d f9 26 8b 3d a2 2b bf bc ef ba 68 3d
       0.10524712 0.06794543 -0.023336235 0.0568189
000250 c1 c5 f6 3c ea 93 98 3d 8b 32 86 3d db bb 09 3e
       0.030123593 0.07450087 0.06552609 0.13450567
000260 99 1a 8c bd 3c 77 fe bd c1 07 8a 3b 26 2e 03 3e
       -0.068410106 -0.12425086 0.00421235 0.12810573
000270 f5 31 a0 bd ff 3b 11 3e 4d e9 12 3e fc 09 c8 bc
       -0.078220285 0.14183043 0.1434681 -0.024418823
000280 0d db 0e 3d 86 bb 94 bd 79 f5 fc 3d 14 82 aa 3d
       0.03487687 -0.0726233 0.12351508 0.08325592
000290 78 c1 cd 3d 78 be 4a bc e1 9d 35 3c 60 bb b7 3d
       0.10046667 -0.012374513 0.011085005 0.08971286
0002a0 bc 02 c9 bd 6a 96 2d 3d ac c2 e5 3d 83 37 8f bd
       -0.09814975 0.042379774 0.11218771 -0.0699301
0002b0 14 17 10 bd 6b 5c dc bd 48 f3 b4 bd 54 c1 33 3d
       -0.03517826 -0.10759815 -0.08835465 0.043885544
0002c0 2a 27 ce 3c 11 1f bb 3a 21 26 14 be 8d 5b 99 bd
       0.02516516 0.0014276226 -0.1446767 -0.07488165
0002d0 26 fb a2 bd 1b e0 06 3e e2 79 c3 bd de c5 8e bd
       -0.07958059 0.13171427 -0.09544732 -0.06971334
0002e0 ff 18 2d 3d c9 fa 34 bd 34 e6 b2 bd 31 36 d3 3d
       0.042260166 -0.04418448 -0.08735314 0.103130706
0002f0 45 00 bc 3d 16 bb b8 bd 6b 52 69 bd 8f 50 f2 3d
       0.09179739 -0.09020059 -0.056963366 0.118317716
000300 85 05 e8 3d 7a cc 46 bb 1e f7 4d 3b 6d 32 4c bd
       0.11329178 -0.003033428 0.003142781 -0.049852777
000310 46 13 ce bc 25 84 f6 3d ac 30 1d bd 45 42 6e bd
       -0.025155675 0.12036923 -0.038376495 -0.05816867
000320 88 54 bb 3c 32 6b 02 3e ff dd c0 bd 5f f8 72 3d
       0.022867456 0.12736204 -0.094173424 0.059318896
000330 da 19 d5 bd 1d b9 12 bd 1e 29 aa bc 25 11 eb 3d
       -0.104053214 -0.03582107 -0.02077156 0.114778794
000340 18 db eb bd 3c df 47 3d 83 6d 12 3e 2f 3f a0 bb
       -0.11516398 0.048796877 0.14299588 -0.0048903446
000350 5c 32 37 3d 3b 96 8b bd 40 52 0e bd 3c 8d 92 3d
       0.04472576 -0.068157636 -0.03474641 0.071558446
000360 cb e5 9d 3d c8 cc 63 bc 86 93 b6 bc fb 9f 83 3d
       0.07709845 -0.013903804 -0.022287142 0.06426998
000370 c7 68 a6 bd 3d 45 a2 3d b6 b7 65 3d ba 48 93 bd
       -0.081254534 0.079233624 0.056083404 -0.07191606
000380 2b 56 cd bd 37 13 45 bd ac 09 86 3d 83 ae d4 3b
       -0.10026201 -0.048114028 0.065448135 0.00649053
000390 b8 8d 8d bd 54 32 93 3b 9f ee d2 bd 49 f0 97 3d
       -0.06911796 0.0044920836 -0.102994196 0.07418878
0003a0 b8 39 b7 3d 55 c9 04 3e 05 77 99 bd bb 86 57 bc
       0.08946556 0.12967427 -0.07493404 -0.013154681
0003b0 90 4e b6 bd 62 ab 31 bd 20 ad ff 3c 02 26 1e bd
       -0.08901703 -0.043376334 0.031210482 -0.038610466
0003c0 b7 c2 6c bd fd 33 dc bc 54 4e dc 3d 64 fd 58 bc
       -0.057802882 -0.026880259 0.107571274 -0.013244007
0003d0 2b 66 9c 3b ce 2c c2 3c 47 f7 ef 3d 4d 44 93 bd
       0.0047729216 0.023703005 0.11717086 -0.07190762
0003e0 af 34 fe bb ed 10 1d bd 0e 73 90 bd 66 e1 7c bd
       -0.007757745 -0.03834622 -0.07053195 -0.061738394
0003f0 e0 95 80 3d a1 25 d7 3d 8c cc a2 bd 74 e9 1c 3d
       0.062785864 0.10505224 -0.079491705 0.038308576

lstm.bias_hh_l0 f4 [256]
000000 94 db 8e bd 57 56 cd 3d cd e0 89 3d aa 48 a9 bd
       -0.06975475 0.10026234 0.067323305 -0.08265813
000010 54 b0 ad bd 1f ab 09 3e 55 30 49 bd dd 54 fb 3c
       -0.084808975 0.13444184 -0.04911836 0.030680114
000020 c5 a0 de bc 82 79 dd 3d d0 a1 e7 3d c0 bb 87 3c
       -0.02717627 0.108141914 0.1131016 0.016569018
000030 30 ee 84 bd a1 5c 3d 3d c6 bd c4 3c 12 13 c3 3d
       -0.06490743 0.046230916 0.024016272 0.09525122
000040 b9 ff 9f 3c a2 77 04 3e 56 96 ab bb fe e3 d7 3d
       0.019531118 0.12936261 -0.0052364273 0.10541533
000050 a9 13 d5 3d 2b b8 9a 3b c5 f2 a5 3d 01 80 3a bd
       0.104041405 0.0047216616 0.08102945 -0.04553223
000060 cb 4c f1 3d e9 53 cd bc 88 8f 14 bd b1 f8 04 3e
       0.11782225 -0.025064426 -0.036269695 0.12985493
000070 c6 bd a3 bb ad 71 7a 3d 87 bf 3b bc 27 52 04 3e
       -0.004996988 0.061143566 -0.011459238 0.12921964
000080 fd 20 ac bd d4 7f fd 3c cd fc ad 3d 9d 32 97 3d
       -0.084047295 0.030944742 0.084954835 0.073827006
000090 1b 85 ae bb ae 5e 54 bd c1 e3 e7 3d b7 78 60 3d
       -0.005325926 -0.051848106 0.113227375 0.054802623
0000a0 10 60 8f bd 5c e2 61 3c 7b 97 67 3d 11 68 9a ba
       -0.07000744 0.013786878 0.056540947 -0.0011780282
0000b0 57 3c a6 3d a5 50 f2 3b b7 e9 fb bd c1 de 06 bd
       0.08116978 0.0073948675 -0.12300437 -0.03292728
0000c0 bb a0 2d 3d a6 ee 7f bd 80 3f 07 bc 2e 95 87 3d
       0.042389613 -0.062483452 -0.008254886 0.06620251
0000d0 42 91 09 3e 7f aa f9 3d 4c 5f 8c 3d 10 33 66 bd
       0.13434318 0.12190723 0.06854114 -0.05620104
0000e0 b0 63 a7 3c 10 47 cd bd 5e 69 ba 3d 2e e6 0a bd
       0.020433277 -0.1002332 0.091021284 -0.033910923
0000f0 ec 26 19 bd 65 6d e0 bc b8 3f cd 3d 1e 20 0a 3d
       -0.037390634 -0.027395913 0.10021919 0.033722036
000100 0c b7 0a bc ca 35 ba bd 80 5e 62 bd 60 f3 9c bd
       -0.008466493 -0.09092291 -0.055265903 -0.076636076
000110 75 7d a1 bd cc d7 d8 3d 82 b1 8a 3d c2 e2 c9 bd
       -0.07885257 0.10588035 0.06772138 -0.09857704
000120 50 dd 35 bd 89 7a 6d bd 6e 10 32 bb 03 40 2e 3c
       -0.044400513 -0.057978187 -0.0027170437 0.010635379
000130 7b 62 3e 3c cd 74 0f bd b8 2e 7e 3d d2 e2 12 bc
       0.011620159 -0.0350235 0.062056273 -0.008965211
000140 14 4b f0 3c e4 30 57 bd 06 a2 98 bd 24 bd d4 3d
       0.029332675 -0.05253686 -0.074527785 0.10387638
000150 2e 76 cc 3d f1 46 fd 3d f7 18 5a bd 69 4c cc 3a
       0.099834785 0.123670466 -0.053246465 0.0015586737
000160 a6 88 63 3c 3a 3a a3 3d 41 91 c7 3d 7d 68 d6 3c
       0.01388756 0.0797009 0.09744502 0.02617287
000170 24 e8 e2 3c cd 0b 73 3d d7 35 a3 3d 58 65 c9 bd
       0.027698584 0.059337426 0.079692535 -0.09833783
000180 47 44 01 bd d2 e5 55 bb 86 ed d1 bd f2 60 a0 3d
       -0.031559255 -0.0032638204 -0.10250382 0.07830991
000190 80 05 05 bd d3 64 ca 3d 45 12 a2 3b 32 e4 2b bd
       -0.03247595 0.09882512 0.0049460256 -0.04196567
0001a0 a4 19 bd bd e5 d2 b6 3c ce 3a 1b bd 92 56 a0 3b
       -0.09233406 0.02231736 -0.037897877 0.0048931325
0001b0 27 15 58 3a e5 23 a7 3d fa d2 e0 bd ca 41 dd bd
       0.0008242898 0.08161143 -0.109777406 -0.10803564
0001c0 43 47 fc 3d be 71 2d 3e 7e 63 00 be 2a 52 46 3b
       0.123182796 0.1693792 -0.12537953 0.0030261376
0001d0 5f b4 0e 3d 6f dc 02 3e 49 ae 6c 3c 63 cd 6d 3d
       0.034839984 0.12779401 0.01444585 0.0580572
0001e0 3a 42 b5 bd 16 4a 9e bc 1c 13 b9 bd c1 48 fa 3d
       -0.08850522 -0.019322436 -0.09036848 0.12220908
0001f0 19 bd 8b 3d bf 08 dc 3d a7 fa e3 3d 77 d6 b4 bd
       0.06823177 0.10743856 0.111317925 -0.088299684
000200 9c 3d 75 3d f7 e9 33 bd 06 fd d7 3d 9b 1c c0 3d
       0.05987321 -0.0439243 0.10546307 0.09380456
000210 69 41 d7 bd b9 e0 0b bd a8 5a 8c bd 14 a0 3d bd
       -0.10510523 -0.03414986 -0.06853229 -0.04629524
000220 d4 fa 0c be 4d ea a2 3d 6c 87 49 3c 7b fc 66 3b
       -0.13767558 0.079548456 0.0123003535 0.0035245705
000230 a7 44 d8 3d 4e 0b 37 3d b5 82 e1 bd dd ea 46 3d
       0.105599694 0.044688515 -0.110112585 0.048563827
000240 70 0f 33 3d 19 db a5 3d 88 27 51 bd fe 22 34 3d
       0.043715894 0.0809843 -0.05106309 0.043978684
000250 08 9f 3b bd 5b 76 05 3e 89 7d 6f bd 11 6a 0a 3e
       -0.04580596 0.1303343 -0.05846933 0.13517024
000260 96 01 fa 3b c4 2d c6 3c ef 22 00 bd 08 2c 9c 3d
       0.0076295836 0.024191745 -0.031283315 0.07625586
000270 30 76 e7 3c bc 58 bb 3d d6 a9 89 3d 00 1b d4 bd
       0.028254598 0.09147784 0.06721847 -0.10356712
000280 16 35 0b be 38 ff f3 3d d6 4d f5 bc 2c 3d e2 bd
       -0.1359447 0.119139135 -0.029944342 -0.11046824
000290 f4 7e f5 3d 01 00 82 bd 0f 03 cf bd 88 85 ea bd
       0.11987105 -0.06347657 -0.10108005 -0.1145125
0002a0 ad 6e 5e 3d 20 b6 8e 3d ce 3d d7 3d 53 54 8d 3d
       0.054304767 0.06968331 0.10509835 0.06900849
0002b0 11 1f bb bc d5 b6 87 3d 1a ec e3 3d b6 a6 3b 3a
       -0.022841962 0.06626669 0.11129017 0.0007158326
0002c0 60 59 a5 3d 06 7a ec bd 1c 59 9d bd 84 17 a5 3d
       0.080736876 -0.115467116 -0.07683012 0.08061126
0002d0 70 81 e1 bd 0f 7d 78 3d c2 e7 99 3d 72 35 9d bd
       -0.11011016 0.06066614 0.075149074 -0.076762095
0002e0 02 cb c3 bd 1e ab a0 bc 89 94 27 3c b8 b4 c8 3b
       -0.09560205 -0.019612845 0.010228285 0.006125059
0002f0 05 65 ba 3d 7b 0e 02 be 15 96 26 bd 3a fe 9b 3d
       0.09101299 -0.12700836 -0.040670473 0.07616849
000300 9f 3e e5 3d 0d 46 df 3d d6 f6 c3 bc 60 ed ad bd
       0.11193585 0.10902033 -0.023921411 -0.08492541
000310 d9 87 3d bd e2 d1 05 3e b7 c9 04 3d bb e7 9a bd
       -0.046272133 0.13068345 0.032418933 -0.0756373
000320 28 c0 43 bd 3d dc 65 bd a4 2a 08 3c c9 7d 01 3d
       -0.047790676 -0.05611824 0.008310948 0.0316141
000330 cc 32 eb bd 0f dc 50 3d 47 0b 61 bd ac 87 99 bc
       -0.11484298 0.050991114 -0.054942396 -0.018741451
000340 74 8f c2 bd 65 87 3d 3c 76 8c a9 bc 6d 2d f0 3d
       -0.09500018 0.011567925 -0.02069686 0.11727414
000350 7e c8 04 bd 89 be 1c 3d 98 c1 63 3d 5d d1 28 3d
       -0.032417767 0.038267646 0.055604547 0.04121529
000360 51 50 31 bd f5 c5 96 bd bb 9e 04 3d 3b 90 92 bd
       -0.043289486 -0.07361976 0.03237794 -0.07156416
000370 db 9b 99 bd ad 89 06 be 31 d4 0a 3e 2c c3 c1 bd
       -0.0750043 -0.13138457 0.13557507 -0.09461054
000380 11 e5 a4 bd 67 b1 2a 3d 90 af 5f bd 9e 85 d7 3a
       -0.080515034 0.04167309 -0.05461079 0.0016443019
000390 4e 4d 6b bd e3 b7 30 bd 5d a1 d1 bd df 8e c1 bd
       -0.05744677 -0.043144118 -0.10235856 -0.094510786
0003a0 63 cc 11 3e 18 90 12 3b 42 ff 82 bc 66 ec e9 bc
       0.14238124 0.0022363719 -0.015990857 -0.028555106
0003b0 09 49 94 3d 65 fe 66 3d 65 de f7 bd c2 d7 ad 3d
       0.07240493 0.056394953 -0.12102965 0.08488418
0003c0 07 bb 0a bc f7 c5 ed 3d e6 07 2b 3d 7a bf b6 bc
       -0.008467442 0.116100244 0.04175558 -0.0223081
0003d0 e9 54 90 3d fe 71 d0 bd e9 2e 97 bd 89 a9 a2 3d
       0.07047445 -0.10177992 -0.07381994 0.079424925
0003e0 bc 73 a9 bd 9f c0 42 3c 2d d7 66 3d c5 26 8a 3c
       -0.08274028 0.011886745 0.05635755 0.01686419
0003f0 ee 0b b7 3d b3 35 e2 3c 54 d0 ab 3d 9f f8 d4 bc
       0.08937822 0.027613496 0.08389345 -0.025997458

lstm.weight_ih_l1 f4 [256, 64]
000000 93 43 d7 bd dc ab ae bd b7 64 03 3d e2 06 b9 3d
       -0.10510936 -0.08528873 0.03207847 0.09034516
000010 34 da 00 3e f1 72 04 bd ea f3 1f be c0 f5 7b 3d
       0.12583238 -0.03233618 -0.1562039 0.061513662
000020 00 08 e4 bd 51 71 40 3b 3c 36 1d be 6d 72 21 3c
       -0.111343384 0.0029364417 -0.1535272 0.009853941
000030 d1 02 c4 bc 0c 35 cc bc 46 2b 22 bd 18 68 93 bc
       -0.023927124 -0.024927638 -0.03959205 -0.017993972
000040 62 18 20 3e 41 ba 5e bd f8 d1 ac bc 77 c3 05 be
       0.15634301 -0.054376844 -0.021096215 -0.13062845
000050 89 3b dc bc 58 fe 9f 3c f3 69 35 3d c8 7a 89 3d
       -0.026883857 0.01953046 0.044290494 0.06712872
000060 d5 fa b7 bd b0 14 57 3d 82 46 96 3d 0b 79 b4 bd
       -0.08983389 0.052509964 0.07337667 -0.088121496
000070 6b 1a 72 3d 59 96 89 3d 06 ee 23 bb 7c 58 b5 bd
       0.059107225 0.0671813 -0.00250137 -0.08854768
000080 09 3c 99 3c b4 20 82 3c d8 9f 83 bc db 3c 93 bd
       0.018705385 0.015884735 -0.01606743 -0.07189342
000090 ce fb d7 3d dd a9 c2 bc 08 5b 9c 3d b2 14 07 be
       0.10546075 -0.023762638 0.0763455 -0.13191488
0000a0 80 77 e7 bd 18 e6 d0 3c 75 77 5b 3d 17 b2 8e bd
       -0.1130209 0.025500342 0.05358072 -0.06967562
0000b0 24 f4 70 bd db 63 aa bd 19 74 94 3c c1 78 02 be
       -0.05882658 -0.08319827 0.018121766 -0.12741376
0000c0 40 8b 0d be 6d ea 13 3e aa f5 65 bc 06 aa 83 bd
       -0.13822651 0.14444895 -0.014035622 -0.06428914
0000d0 47 a2 1d bd 05 ab 69 3d 4b c3 54 bd 15 b5 fa 3c
       -0.038484838 0.057047863 -0.05194406 0.030603925
0000e0 20 fc 66 bd 37 ef ac 3d 11 a7 86 bd dc 18 e4 39
       -0.05639279 0.08444064 -0.06574834 0.0004350607
0000f0 13 2c 1c 3d 2f 8e ef 3d 83 46 d1 bd 9c 5f a1 bd
       0.03812797 0.11697041 -0.10218527 -0.07879564
000100 d5 01 d0 3d 4e 4c 7f ba 1a a3 a2 bc 3f 10 e5 3d
       0.101565994 -0.00097388483 -0.019853164 0.11184739
000110 c6 bb ab bd 6a c7 13 be 10 ce 78 3c 52 c8 d3 3d
       -0.08385424 -0.14431539 0.015185848 0.103409424
000120 c3 a6 81 bd a4 ad 2e 3d a9 e0 e4 bc 5d 68 a6 3c
       -0.063306354 0.042646065 -0.027939158 0.020313436
000130 30 81 eb 3d 1c 6a 4b 39 02 29 80 bd b5 03 8d bd
       0.1149925 0.00019399117 -0.062578216 -0.06885473
000140 42 7c 04 bd 4b 9e f3 bd c1 b9 c7 3c 95 4b a9 bd
       -0.032345064 -0.11895426 0.024380567 -0.08266369
000150 11 f6 0f 3d 4f 25 34 bd 07 0a d6 bd 43 fc 91 3d
       0.035146777 -0.043980893 -0.10451131 0.07128193
000160 8c 46 5b bd bb 4a 86 bd c4 83 15 3d 18 1d aa bc
       -0.053534076 -0.065572225 0.036502615 -0.020765826
000170 68 0b b7 bc 00 0b b6 3c 82 2e a7 3c 8c 5a 08 3d
       -0.022344306 0.022222042 0.020407919 0.033289477
000180 2c 7e b5 bd d7 df 8d 3d 00 7f a0 3d 40 af 83 bd
       -0.08861956 0.0692746 0.07836723 -0.06429911
000190 79 8c 45 3c 99 b9 90 bd 88 35 d3 3c 3c b2 07 bd
       0.012057417 -0.0706665 0.025782362 -0.033128962
0001a0 b0 b1 44 bd e3 1b 1d 3d 42 8c 3e bd d8 e6 e0 3c
       -0.04802102 0.038356673 -0.04652048 0.027453825
0001b0 b0 f3 a1 3d a8 d5 0e 3b 82 ac e0 3d 28 aa 88 3d
       0.07907808 0.002179483 0.10970403 0.0667308
0001c0 4a 30 0d bd 48 e9 94 bd c4 67 6f 3c 8e 40 a4 3b
       -0.03446988 -0.07271057 0.014612142 0.0050125783
0001d0 3a 71 bd 3d 7a 5f a8 3d 65 c0 84 bd 01 7f 87 3d
       0.09250112 0.08221336 -0.06482009 0.06616021
0001e0 62 5c 7e bb 4d c8 f1 bd da 01 85 bd c1 ab 65 bc
       -0.0038812389 -0.118057825 -0.06494494 -0.014018
0001f0 a9 2a bd bc d7 43 04 3e 9d 0b 88 3d a6 3f ae bd
       -0.023091631 0.12916504 0.0664284 -0.08508234
000200 7f 11 f7 bd f8 2f 67 bd c6 95 90 3d f4 3f f8 3d
       -0.12063884 -0.05644223 0.07059817 0.12121573
000210 8f ff 03 3d a1 88 3d 3d c2 04 de bd da c3 8a bd
       0.03222614 0.046272878 -0.10840751 -0.06775637
000220 c6 8c e7 bd 91 60 e2 bd fb ec 9a 3c ee 8d bd 3b
       -0.11306147 -0.11053575 0.01891183 0.0057847416
000230 22 08 ef 3d 56 37 e9 b9 9c 10 e0 3d 6a 53 ce bd
       0.11671473 -0.00044482452 0.10940668 -0.10074504
000240 ac 5d cb bb 40 25 9c bd 8d 47 ab 3d 96 9b 91 3d
       -0.006206235 -0.076242924 0.083632566 0.07109754
000250 41 22 92 bd 52 c3 d3 bd 68 31 84 3c d7 4f d4 bd
       -0.0713544 -0.10339989 0.01613684 -0.10366791
000260 e5 2a dd 3d a0 07 d8 bb 2e de eb bb 15 ef 45 3b
       0.10799197 -0.006592706 -0.0071981167 0.0030202318
000270 f8 dd 8a 3d 65 d4 27 3d 6c eb fb bd 2d a2 52 bc
       0.067806184 0.04097404 -0.123007625 -0.0128560485
000280 03 3e a9 bd c6 c6 f6 bd f5 41 67 bd 4b b0 f9 bd
       -0.08263781 -0.12049632 -0.056459386 -0.12191828
000290 c3 7f 9c 3d ad 70 dc bd b7 d5 26 bd af 83 ca 3d
       0.07641556 -0.10763679 -0.040731158 0.09888398
0002a0 b9 1d 66 3c 4e a8 78 bc 80 a1 d8 3d 58 51 c8 3d
       0.014045172 -0.015176846 0.10577679 0.0978114
0002b0 39 c4 a8 bd 4d 58 95 3d ef 15 af bd 26 34 73 bd
       -0.082405515 0.07292233 -0.085491054 -0.059375905
0002c0 26 52 9e 3d 1d e1 bc 3c 5e 54 99 3b bf 09 db 3d
       0.07730512 0.023056561 0.004679247 0.10695218
0002d0 18 80 b7 ba 2a d7 a7 3d 7a fc a7 bd 87 aa 09 be
       -0.0013999967 0.08195336 -0.08202453 -0.13443957
0002e0 73 15 2c bd 19 c3 d6 bc fc 98 a0 bd bc c6 85 3d
       -0.042012643 -0.026216077 -0.078416795 0.06532046
0002f0 2d 30 74 3c b1 f8 98 bd 10 69 f4 bd 2f b7 62 3d
       0.014904064 -0.07469309 -0.119341016 0.05535048
000300 af d7 e7 bd 5a 23 a4 3c 20 8d b6 bd 8c 72 23 3c
       -0.11320435 0.020036388 -0.08913636 0.009976041
000310 c1 a4 9c bd 68 e9 1b be c4 af bf bd 6a f6 c6 3d
       -0.07648612 -0.15225756 -0.093596965 0.097149685
000320 36 7c 64 bd 19 a0 ac bd 46 14 20 be eb cf 18 3d
       -0.05578252 -0.08428974 -0.15632734 0.03730766
000330 9d ce 3d 3c 41 49 8c 3d c4 68 d3 3d 94 62 75 3d
       0.011584905 0.068499096 0.10322717 0.059908465
000340 ef c1 8e 3d 47 2e de 3d 15 c4 30 3e a4 54 0e bd
       0.06970584 0.108486705 0.172623 -0.03474869
000350 8f b8 a0 bd d8 d4 6e bd 93 4d 9a bd 72 69 d8 bd
       -0.07847702 -0.058308452 -0.07534327 -0.10566987
000360 dc b7 f1 3d e9 13 07 be 5c 42 fa 3b 5b 6c d6 bd
       0.118026465 -0.13191189 0.007637305 -0.10469886
000370 20 da 25 bd 4d ba c5 3c 00 75 40 3d f8 c9 f8 3d
       -0.040491223 0.024136687 0.04698658 0.121478975
000380 c4 c3 ff 3d 0f 16 d2 3d 04 ab 8e 3d c0 2c 93 bd
       0.12488511 0.102581136 0.069662124 -0.0718627
000390 31 6b ff bc 65 d5 dd 3d 0e 45 c4 3c 84 ac 47 bd
       -0.031179043 0.108317174 0.02395871 -0.048748508
0003a0 3c d9 93 3d 5b 18 cc 3a dc 18 af 3d 16 4f 46 3d
       0.072191685 0.0015571223 0.085496634 0.048415266
0003b0 dc 3b 81 3d a5 06 d6 bd 03 34 cb bd 75 ae 83 3d
       0.063102454 -0.10450486 -0.0992203 0.064297594
0003c0 0f cb a9 3d 65 7c 21 bd 7c 0f 12 3e ca 1d 05 3e
       0.082906835 -0.039425272 0.1426372 0.12999645
0003d0 08 25 f4 3d 42 d3 86 bd 6a 78 4b 3c b6 5c 8e 3d
       0.11921126 -0.06583263 0.012418846 0.06951277
0003e0 f5 5e a0 bd 38 4e bd bd 04 db 11 be 13 a7 bb 3d
       -0.078306116 -0.09243435 -0.14243704 0.09162726
0003f0 1f b9 8b 3d 71 1d ad 3b bd e7 dd bd 28 6f b4 bd
       0.068224184 0.0052830507 -0.10835216 -0.08810264

lstm.weight_hh_l1 f4 [256, 64]
000000 a6 d4 e2 3d f2 44 9a 3d 6f 29 8f bd 89 55 f0 3d
       0.11075716 0.075326815 -0.06990325 0.117350645
000010 86 c5 a9 bb 0b 8b b2 bd 24 3a 0b 3d b2 9d 85 bc
       -0.0051810173 -0.087179266 0.033990994 -0.016310547
000020 ee da 8b bd 07 c4 28 3c 54 6a 80 3d f1 e1 b2 bd
       -0.06828867 0.010300643 0.062702805 -0.08734501
000030 9b f0 3b 3d bd 1d c7 bc f8 97 5a bd c8 9c aa 3d
       0.045883756 -0.024306173 -0.053367585 0.08330685
000040 ae 67 2e 3d 65 b4 ac 3d 33 4c 0e be 01 9a b8 bd
       0.042579345 0.08432845 -0.13896255 -0.09013749
000050 c6 f6 17 be 5d 60 70 3c ef 8e b7 bd 6d bc 97 3d
       -0.1484023 0.014671412 -0.08962809 0.07408986
000060 64 da b5 bc 20 6b 43 bd 2c 30 9b bd 68 4c 06 3d
       -0.022198863 -0.047709584 -0.075775474 0.03278771
000070 02 6a ae bd ff fc 30 3d 20 ff 8d 3d d6 79 e3 bd
       -0.08516313 0.043210026 0.06933427 -0.11107223
000080 6c 23 91 bd 7e e6 f6 bc ba 34 a3 bd 89 b1 2d bc
       -0.07086834 -0.030139204 -0.07969041 -0.01060141
000090 0d 4b 0b 3d 52 c9 d5 3d 94 33 db 3d e9 a7 31 bd
       0.03400712 0.104387894 0.10703197 -0.043373022
0000a0 57 34 90 3c ca 26 e8 bc 3d c6 49 bc 98 63 e0 3c
       0.017603083 -0.028338809 -0.01231533 0.02739124
0000b0 e9 84 f1 3d c0 5a 9c 3d ff 77 cd 3c 79 a5 3d bd
       0.11792929 0.07634497 0.025081633 -0.046300385
0000c0 4f f7 0a 3c c2 d0 66 bd ec 5a ce bd dd fe 97 3d
       0.0084818145 -0.05635143 -0.10075936 0.07421658
0000d0 ee c5 37 3d db 18 50 3d 35 60 9a 3d a4 ca 66 bc
       0.044866495 0.050804954 0.07537881 -0.014086399
0000e0 af 62 62 bb a2 82 8c 3d f0 54 dc 3b e2 80 b3 3d
       -0.0034543683 0.06860854 0.0067239925 0.08764817
0000f0 a2 29 dc 3b 1f 2c ae 3d 6c 55 fc 3b 10 53 ec 3c
       0.00671883 0.08504509 0.007700613 0.028848201
000100 c2 6f 38 bc 5f ea 3a bb 26 42 53 3d 0c 9c d3 3d
       -0.011257114 -0.0028521044 0.051576756 0.10332498
000110 a4 f9 93 3d e1 67 67 3d 57 3b da bd 8d 29 cb bd
       0.072253495 0.05649555 -0.106558494 -0.099200346
000120 c4 e5 7e 3d 26 6e 12 be 08 e7 b1 3d 9e ad e0 3d
       0.06223084 -0.14299831 0.08686644 0.10970615
000130 f1 26 04 be a3 a5 43 bc 64 ea 3f 3d 5f 88 be 3d
       -0.1290548 -0.011941346 0.04685439 0.093033545
000140 be 94 ff 3d e6 cd 06 bd 15 89 ec ba 6a cb 77 bd
       0.12479542 -0.032911204 -0.0018046225 -0.060496725
000150 9a 38 6e bb e6 0b 2f bd fd 1a a9 3d 15 86 2f bd
       -0.0036349655 -0.042735957 0.08257101 -0.04285248
000160 42 12 6d 3d d9 02 46 3c 1c de be 3d e1 e7 2d bd
       0.05787874 0.01208564 0.09319708 -0.042457465
000170 6e 3e 88 3d c7 d5 e8 3d 52 53 1b 3d 18 ce 18 bd
       0.066525325 0.113689 0.037921257 -0.03730592
000180 2b 5c bb 3d ae ac 7d 3c ed 91 14 be 59 6b 15 3d
       0.09148439 0.015483065 -0.14508791 0.036479328
000190 d3 88 5a 3d ce 94 80 3c 69 07 0d 3d 33 26 92 3d
       0.053353142 0.015695956 0.034430895 0.07136192
0001a0 a6 5b b2 3c ca 27 bc 3d ef 8e 28 3d a8 a4 b8 3c
       0.021772217 0.09187277 0.041151937 0.022539452
0001b0 f3 9e b2 3c 1f cc fc 3a e8 a8 7e 3d 70 a8 1f 3d
       0.021804309 0.0019286907 0.0621728 0.038978994
0001c0 bf 60 de 3d 22 b8 51 3d 92 ba 96 bc 22 45 f0 bc
       0.108582966 0.051200993 -0.01839951 -0.02932984
0001d0 9c 07 8c 3d 0f 5a 39 3b 39 83 81 3d e6 79 cf bd
       0.06837389 0.002828244 0.06323857 -0.10130672
0001e0 dc 61 73 bd d3 20 a6 bd 1c 5e e4 3d 93 50 71 bd
       -0.059419498 -0.081117295 0.111507624 -0.058914732
0001f0 5b 17 83 bd 70 c1 3e bd 1e dd ce bd 2a b1 bf bd
       -0.06400939 -0.046571195 -0.101007685 -0.09359963
000200 f7 fa ad bd b0 e7 91 bd b6 59 1e bd ba 33 67 3c
       -0.08495133 -0.07124269 -0.038659774 0.014111454
000210 34 64 38 bd c8 56 59 bc 50 21 37 3d fa 37 da 3d
       -0.045017436 -0.013265319 0.044709504 0.10655208
000220 9b 71 08 3e a2 5e 75 bd bc a0 13 be 0d 93 85 bd
       0.13324587 -0.059904702 -0.14416784 -0.06522188
000230 61 55 20 3d 9b cf ce bd 24 eb 1c bc 6c 4e 89 bd
       0.039143924 -0.10098191 -0.009577546 -0.06704411
000240 4f 5b c0 bc ba bc 00 3d 36 ce 19 be 95 34 9d bd
       -0.02348104 0.031429984 -0.1502007 -0.07676045
000250 97 a0 0e be 05 2e a5 3d 75 29 37 3d c4 27 c8 bd
       -0.13928448 0.08065418 0.04471727 -0.0977321
000260 12 72 94 3d 55 12 fa bc 72 27 50 bc a0 8d 16 be
       0.0724832 -0.03052632 -0.012704717 -0.14702463
000270 89 c0 a7 3d 15 aa a0 3d ea cd c9 bd 3e c0 b6 3c
       0.0819102 0.078449406 -0.09853728 0.022308465
000280 9f fb 73 3d 0e 3b 86 3d 58 da 93 3b 51 fb 02 3d
       0.059566136 0.065542325 0.0045121126 0.031977955
000290 2f 38 d8 3d 0c 9e cb bd fd ff 1d bd 6a 01 91 bd
       0.10557591 -0.099422544 -0.038574208 -0.07080348
0002a0 2a 67 63 3c cb 16 c1 bd a0 f9 a1 3d 54 4b 51 bd
       0.013879577 -0.094281755 0.0790894 -0.05109723
0002b0 ce 79 66 3d 19 1f 7d bd a2 31 56 bd 80 c0 81 3c
       0.056268506 -0.061797235 -0.052293427 0.015838861
0002c0 b4 c7 58 3d 3c 0d 2c bc 19 80 ed 3c db 64 71 3d
       0.052924827 -0.010501202 0.028991746 0.058934074
0002d0 53 45 20 3c fe f7 0d bc 64 98 0a 3d 42 36 a6 bc
       0.009782153 -0.008665083 0.033836737 -0.020289544
0002e0 e6 ae 16 bd af 79 f2 3d 87 fc 4f 3c a0 a6 9a bc
       -0.03678789 0.118396156 0.012694485 -0.018878281
0002f0 89 99 a4 3d ec 3c c1 bb 6f 4a e5 ba 16 5c e4 bc
       0.08037097 -0.005897155 -0.0017493496 -0.027875941
000300 a2 e9 8e bd cd 7b 03 be 84 4e 4c bd 7f b5 0c 3e
       -0.06978156 -0.12840195 -0.049879566 0.1374111
000310 e4 f0 80 3d dc 45 d8 3a 9d 4e c2 bd 60 d5 d8 bd
       0.06295946 0.0016500312 -0.094876505 -0.10587573
000320 ac ca b1 bb 07 94 15 be 80 ee 07 b8 fe a1 16 3d
       -0.0054257717 -0.14607249 -3.240863e-05 0.03677558
000330 cc 29 42 bb 4f e6 a2 bb 46 47 16 3e c1 7b 8d 3c
       -0.0029626964 -0.0049713026 0.14675626 0.017270925
000340 7c c8 fd 3c 3d ad 69 bd ba 84 c6 3d 73 3b 9b bd
       0.030979387 -0.05704998 0.09693284 -0.075796984
000350 99 47 7a 3d 69 43 c0 3c 3a 55 95 3c 58 a7 a5 3d
       0.061103437 0.023469644 0.018229116 0.08088559
000360 41 ae 0b bc d6 c4 87 bd a8 04 27 3e 3d 60 c4 bd
       -0.008525432 -0.0662934 0.1631037 -0.095886685
000370 ac 54 ce bd 94 69 9a 3d 70 3d a3 3d 1a 76 5a 3b
       -0.10074744 0.07539669 0.07970703 0.0033334554
000380 e4 12 7d 3d c8 c2 35 bd f8 0f 1c bc fd 68 9d ba
       0.061785594 -0.04437521 -0.009525292 -0.0012009438
000390 7e ee 52 bd 30 4f e8 bc ee 04 e2 bd ed 8e 2b 3d
       -0.051496975 -0.028358072 -0.110360965 0.04188435
0003a0 6e 77 c8 3b ca a6 67 3c e7 0e cd bd e4 60 c2 bc
       0.0061177528 0.014138887 -0.10012608 -0.023727842
0003b0 18 4f 0f 3e 0e 51 92 bc a2 83 ca bc fb 3d 14 3d
       0.13995016 -0.017860916 -0.02472097 0.03619192
0003c0 01 a1 d0 bd d0 13 73 bd fc ed 0e 3d 52 e6 94 bd
       -0.10186959 -0.059345067 0.03489493 -0.072704926
0003d0 22 48 dc bd 62 d2 8e bc 4e 0b ee 3d 28 1b 67 3d
       -0.10755946 -0.017434303 0.1162325 0.056422383
0003e0 57 0e 3f bd 93 c4 0e 3d 69 2f eb bd 5a 6c 1a bd
       -0.046644535 0.034855437 -0.11483652 -0.03770099
0003f0 16 96 11 3d aa 6e cd 3d 66 53 91 3d d0 b4 f1 3c
       0.035543524 0.10030873 0.07095985 0.029505163

lstm.bias_ih_l1 f4 [256]
000000 a9 5e aa bc 77 3d de 3d e6 bb 7b bd 05 6b eb bc
       -0.02079709 0.10851567 -0.06145849 -0.028737554
000010 39 df ca bc 3c fb 76 3d 4d 42 b3 bd 88 69 5c b9
       -0.024764644 0.06029819 -0.0875288 -0.00021020148
000020 eb 60 4b ba 13 c6 e8 bc cc 76 e8 3d b4 a2 bf 3d
       -0.00077582774 -0.028414762 0.11350784 0.09357205
000030 a0 85 f4 ba 4c 3c 03 bd 5b dc 1a 3d 1f 14 aa bd
       -0.0018655546 -0.032039925 0.037807804 -0.08304619
000040 a0 fe b4 3c 94 3b 30 3c 58 c5 ae 3d 8c 00 5a bd
       0.02209407 0.010756392 0.08533734 -0.053223178
000050 ef 03 20 bd 49 be 0e 3d 92 81 9a 3d d6 31 7d bd
       -0.03906625 0.03484944 0.07544245 -0.061815105
000060 6d 1c e0 bd 47 fa 49 3d 98 68 80 bd 09 e6 ac 3d
       -0.10942922 0.04931095 -0.0626995 0.08442313
000070 4c c2 7a 3d 49 60 d2 bd d7 9f 48 3d 05 cc 61 3c
       0.061220452 -0.10272271 0.04898056 0.013781552
000080 a5 e9 13 bd 23 6f fd 3d 6d 2a 07 3e d7 a3 ae bd
       -0.036111493 0.12374713 0.13199778 -0.08527344
000090 2c 0e 56 bd ce 90 a5 bc 0a 82 9f 3c bf 9c 15 bd
       -0.05225961 -0.02021065 0.019471187 -0.036526438
0000a0 35 8d 0d 3e ce c6 fa 3c 8b 19 f7 3d fe 7a 7d 3d
       0.13823397 0.030612376 0.12065419 0.061884873
0000b0 62 0f cb bd cf 11 2b bd 3d 28 02 3e 7f 36 43 3d
       -0.099150434 -0.04176503 0.12710662 0.047659393
0000c0 8e c7 91 3d ba 0f 03 3e 0f 3f c4 bd ec 4e 92 3b
       0.0711814 0.12798968 -0.0958234 0.0044649746
0000d0 de 24 ca 3d e2 ee 8e bd d8 9e 18 3c 4f 5c c7 3d
       0.09870313 -0.06979157 0.009315215 0.09734403
0000e0 79 59 85 3b 7f 1b 87 bd 5d cf a2 3c a2 c9 40 bd
       0.004069504 -0.06597041 0.01987427 -0.047067292
0000f0 35 b7 41 bc 01 48 c5 3d b4 21 33 3d e9 dd 0e bd
       -0.011823465 0.09632874 0.043733314 -0.0348796
000100 ba 8f 31 3c f0 e9 f4 3c 4e 19 93 3d dc 55 c3 bd
       0.01083749 0.029896706 0.07182561 -0.09537861
000110 70 39 13 3d 1b 71 82 bd 7f fc 87 3d 77 96 f1 3d
       0.03594345 -0.063692294 0.06639957 0.11796277
000120 ae 53 bf 3d 19 be b4 bc c7 9f 15 3e 0d c1 35 bd
       0.093421325 -0.022063302 0.14611731 -0.04437356
000130 1b e0 82 bd 18 5c 9e 3c e5 00 0f 3c 4c 39 55 3d
       -0.06390401 0.019331023 0.008728241 0.052056596
000140 fa 34 f3 3c 96 cb 81 3a fc 07 03 3e b7 b7 30 bd
       0.029688347 0.0009902592 0.12796015 -0.043143954
000150 6f 13 08 3e ab b2 d7 3d 94 65 b6 bd 1c 3f 23 bd
       0.13288663 0.10532125 -0.08906093 -0.039855108
000160 77 6b d9 3c f4 76 9c 3d 3a 45 06 3e de 77 b9 bd
       0.026540501 0.07639876 0.13112345 -0.09056066
000170 c4 2e 37 3d 29 06 d5 bd 76 96 3f bc db 98 bd 3d
       0.044722334 -0.104015656 -0.0116935875 0.092576705
000180 83 8c 41 bc 31 db 05 3e ab aa 8a bd 48 2a 9b 3d
       -0.011813286 0.13071896 -0.067708336 0.07576424
000190 70 fe 22 3c 7b eb a1 bd ad d4 ea 3d f0 bc b3 3d
       0.009948358 -0.079062425 0.11466346 0.08776271
0001a0 e8 c6 13 3d a1 77 62 3d 95 2b 3b bb 94 c6 3e bd
       0.036078364 0.05528987 -0.0028559912 -0.046576098
0001b0 2d 86 95 bd 1c 88 73 3d 52 5c a1 bd bb f2 2c bc
       -0.073009826 0.059455976 -0.07878937 -0.010555918
0001c0 77 e7 99 bd ac cf bf 3c b8 04 15 3d c3 c4 33 3d
       -0.075148515 0.023414455 0.036381453 0.04388882
0001d0 de b4 40 3d e5 1d a6 3d d0 7c 17 3c 77 91 f1 3d
       0.04704749 0.08111171 0.009246066 0.11795323
0001e0 a0 a5 19 bc b5 b9 f4 3d 6d bf 2b 3d 22 06 bf 3d
       -0.009377867 0.11949483 0.041930605 0.093273416
0001f0 c3 a6 0f bd c2 63 9d bd e3 81 f9 3d 70 c9 af 3d
       -0.035071146 -0.07685043 0.12182977 0.08583343
000200 a0 d0 a6 bd d8 19 13 bd e9 5b 7f 3d 4c ba 60 bd
       -0.08145261 -0.03591332 0.06234351 -0.054865167
000210 1f cd e3 3d 86 6b b6 3d 99 52 70 bd 22 c6 17 3e
       0.11123108 0.08907227 -0.05867252 0.14821675
000220 bc 8d 14 3c 49 68 a9 3c e3 eb a6 3d bc 56 fa 3d
       0.009066995 0.02067961 0.081504606 0.122235745
000230 0f 52 56 bb 8b 4d 26 3d f6 be fa bd 79 20 79 3d
       -0.003270272 0.040601294 -0.12243454 0.060821984
000240 c0 bc 92 3d 82 f3 20 bd 2e 5a d9 3d 4d 06 80 bd
       0.071649075 -0.039294727 0.106129035 -0.06251202
000250 f6 fc f9 bc 0b aa fb 3c c1 0a 88 bd 9d b8 d6 bc
       -0.030516129 0.030720731 -0.06642676 -0.026211077
000260 4a 0a c2 3c 35 e9 ff bd 6c 3a 99 bd a5 00 5a 3d
       0.023686547 -0.124956526 -0.07481846 0.05322327
000270 30 90 00 3e 18 2c a5 3d 47 d0 b0 3d e4 e6 18 be
       0.12555003 0.08065051 0.08633476 -0.14931828
000280 14 df 0d be 8a a6 1c be 2a aa 8a 3a 2b 3f c9 bd
       -0.13854629 -0.15297905 0.0010579277 -0.098265015
000290 4c 11 65 3d 64 83 cf bc 87 f8 bf 3c 61 b1 c9 bd
       0.0559247 -0.025331207 0.023433937 -0.098482855
0002a0 a8 6c b5 3c 44 03 dd 3b 72 9e 31 bd 75 6d 94 bd
       0.022146538 0.006744774 -0.043363996 -0.0724744
0002b0 93 27 8b bb fd c2 c1 3d a8 2b 12 bd f5 48 4c 3d
       -0.004246661 0.09461019 -0.035686165 0.049874265
0002c0 ca 94 e1 3d 41 d7 c6 3c c6 3a f9 3b fd ec 0a 3e
       0.110147074 0.024272563 0.0076058833 0.13566966
0002d0 d1 ca 16 3e b6 ed a4 3d 9a d9 bb 3c db ea 32 3c
       0.14725806 0.08053152 0.022930909 0.010920252
0002e0 f6 aa 98 3d 1a 39 27 bd 56 2c 28 be 66 78 0a be
       0.07454483 -0.04082594 -0.16423163 -0.13522491
0002f0 ac df 8d 3d 1f 2b 68 3d ff 2e 98 bd 83 c1 b4 3d
       0.06927428 0.05668175 -0.07430839 0.08825972
000300 36 de eb 3d c3 9c 79 bc 5a a2 5d 3d 9f e5 4f bd
       0.11516993 -0.015235129 0.05410991 -0.050756093
000310 44 8c cf bd 48 35 06 3d e7 2f aa 3d 97 11 c4 3c
       -0.101341754 0.032765657 0.08309918 0.023934169
000320 3b 35 ff 3d de b1 27 3e c1 92 08 bd de 20 aa 3d
       0.12461325 0.16376445 -0.03334308 0.0830705
000330 df 6e 72 bd 8d 9b f7 3d 70 76 e1 bc eb 72 e8 3d
       -0.059187766 0.12090216 -0.027522296 0.11350044
000340 20 73 c9 3b 5d 3c 45 3c 72 4d 56 bc 46 8a cc 3c
       0.006147757 0.0120383175 -0.013079988 0.024968278
000350 75 d2 be bd 1e 16 b6 bd b8 a5 0f 3e 82 3c 30 bd
       -0.09317485 -0.08890937 0.1402806 -0.043026455
000360 71 54 a2 bd cb da 42 3d 35 a6 88 bd 3e 5d 92 bc
       -0.07926262 0.04757194 -0.066723265 -0.017866727
000370 f7 a2 b1 bd f5 dd 3f bd dd 8f 13 bd 3e 9a 17 3e
       -0.08673661 -0.046842534 -0.03602587 0.14804932
000380 f2 24 03 bd 93 36 3c 3d be f1 6d bc 73 49 06 be
       -0.032017656 0.045950484 -0.014522968 -0.13113956
000390 46 4d ed 3d 42 57 c0 3d 3a ab 32 bd d4 44 f2 3b
       0.11587004 0.09391643 -0.043620326 0.007393459
0003a0 3a 09 cc 3d 44 dc d5 bd 4c 0c 98 bd 45 fd 51 3d
       0.09962697 -0.10442403 -0.074242204 0.051266927
0003b0 6c f1 8b 3d a2 5b b2 bd 11 94 83 3d c8 3d c9 bd
       0.06833157 -0.08708884 0.06424726 -0.09826237
0003c0 1c 21 a0 bd 7a 63 45 bd 30 e4 f3 3d 1c f6 61 bd
       -0.07818815 -0.04819057 0.11908758 -0.05516635
0003d0 63 45 44 3d c3 1d d3 3d c0 5f d0 3d 56 85 c6 bd
       0.047917735 0.10308411 0.10174513 -0.096934006
0003e0 fb 81 07 be bf e5 09 bd 05 d1 80 3c cc 68 5a bd
       -0.13233177 -0.03366637 0.015724668 -0.0533226
0003f0 44 c9 e2 bc 04 fb 06 3e 04 3a ef 3d bf c1 ed bb
       -0.027683862 0.13181692 0.116809875 -0.0072557623
